…
lab":{"base_uri":"https://localhost:8080/"},"executionInfo":{"elapsed":11,"status":"ok","timestamp":1705714385263,"user":{"displayName":"Abhijyaan Dabral","userId":"12806077044808801932"},"user_tz":-330},"id":"g3YD-hZtxJnx","outputId":"24b9cb73-3c75-4e11-c459-6614ed08f668"},"outputs":[{"name":"stdout","output_type":"stream","text":["Model: \"sequential\"\n","_________________________________________________________________\n"," Layer (type)                Output Shape              Param #   \n","=================================================================\n"," conv2d (Conv2D)             (None, 198, 198, 32)      896       \n","                                                                 \n"," conv2d_1 (Conv2D)           (None, 196, 196, 32)      9248      \n","                                                                 \n"," batch_normalization (Batch  (None, 196, 196, 32)      128       \n"," Normalization)                                                  \n","                                                                 \n"," max_pooling2d (MaxPooling2  (None, 98, 98, 32)        0         \n"," D)                                                              \n","                                                                 \n"," conv2d_2 (Conv2D)           (None, 96, 96, 64)        18496     \n","                                                                 \n"," conv2d_3 (Conv2D)           (None, 94, 94, 64)        36928     \n","                                                                 \n"," batch_normalization_1 (Bat  (None, 94, 94, 64)        256       \n"," chNormalization)                                                \n","                                                                 \n"," max_pooling2d_1 (MaxPoolin  (None, 47, 47, 64)        0         \n"," g2D)                                                            \n","                                                                 \n"," conv2d_4 (Conv2D)           (None, 45, 45, 128)       73856     \n","                                                                 \n"," conv2d_5 (Conv2D)           (None, 43, 43, 128)       147584    \n","                                                                 \n"," batch_normalization_2 (Bat  (None, 43, 43, 128)       512       \n"," chNormalization)                                                \n","                                                                 \n"," max_pooling2d_2 (MaxPoolin  (None, 21, 21, 128)       0         \n"," g2D)                                                            \n","                                                                 \n"," flatten (Flatten)           (None, 56448)             0         \n","                                                                 \n"," dense (Dense)               (None, 512)               28901888  \n","                                                                 \n"," dropout (Dropout)           (None, 512)               0         \n","                                                                 \n"," batch_normalization_3 (Bat  (None, 512)               2048      \n"," chNormalization)                                                \n","                                                                 \n"," dense_1 (Dense)             (None, 256)               131328    \n","                                                                 \n"," dropout_1 (Dropout)         (None, 256)               0         \n","                                                                 \n"," batch_normalization_4 (Bat  (None, 256)               1024      \n"," chNormalization)                                                \n","                                                                 \n"," dense_2 (Dense)             (None, 58)                14906     \n","                                                                 \n","=================================================================\n","Total params: 29339098 (111.92 MB)\n","Trainable params: 29337114 (111.91 MB)\n","Non-trainable params: 1984 (7.75 KB)\n","_________________________________________________________________\n"]}],"source":["# Print the model summary\n","cnn_model.summ
…
